best_nn_model.pth (torch, 874532 bytes, 15 tensors)

model.0.weight f4 [512, 96]
00000000: b821 a83d fad0 b53d b111 a3bc e88e a33d
00000010: 9be7 0bbd 320e 653b 8f3e d6bd ecba 703d
00000020: df16 b03d 32a1 00be 2ced 4c3d 40fe 573c
00000030: f824 c13d a05e 583d 51a0 423d 0cba b9bc
00000040: 94eb 853d 5eeb 6abc b2cd 0fbd 7433 8d3d
00000050: 4dec 85bd 8d3f bebc c199 36bd 4de2 8f3d
00000060: 3f03 eabd 5aff ecbc 97ee e5bc 1ef0 a4bd
00000070: c105 e53c 8131 a7bd d16e 683d 924e a3bd
00000080: 6b6f be3d d9f5 6c3d d674 3bbd 8db9 4ebc
00000090: 8ce1 83bd c192 053d 6f70 81bd 0d28 edbd
000000a0: 4f7e 623c 19d7 193d 2f72 f03d b94f 763d
000000b0: ed21 a33d 6283 cfba f60a 083e 847b 9b3c
000000c0: 2c77 4bbd 751c d4bd 2220 62bd f231 11be
000000d0: f42f 8ebd e92a 883c a269 d13c b475 0d3d
000000e0: 24ec 373d 16b1 20bc 66f1 a43d 3d17 92bd
000000f0: 8dbf fb3d 57ac 33bd 8689 e4bc 4e2b 12bd
00000100: 851a 52be 1145 2d3c bf0e 093e 55c7 15bd
00000110: 0f89 acbc c1c1 b9bd b411 213e 3df8 663c
00000120: 6b02 a43d 378f b5bd 0737 dcbd 6a1a 02bd
00000130: 853a e9bc 801e ab3d 8689 743d 1a7d 963d
00000140: 0a02 febd 136d 70bd 8deb 2bbd 5d0e 313d
00000150: 5d53 953d 1ab6 843b 552d b63d f547 a13b
00000160: 306a 7bbd 45a0 bc3c 231f 7ebd d559 94bd
00000170: 091e 173d 08fb 7e3d 76d2 6ebd 13c2 8fbd
00000180: d095 f23d 8eb8 1abc b22d 35bc 466d 14be
00000190: 483a 2dbd 9cb3 de3b 36b6 8d3c 494f 51bd
000001a0: 7c44 0bbc c998 a7bd 8848 e9bd c5fa 373c
000001b0: 7cb5 97bd 0c66 6bbd fdad e63d 15c7 8eba
000001c0: 0b38 893b 44e2 a6bd ca7b 80bd 260c df3b
000001d0: 989f b53c 9076 22be d13b e6bc 7469 31bd
000001e0: 5c83 973d 3793 2abd bf86 88bc 8d38 76bd
000001f0: 1d8a 76bd 63c9 21bd 0e47 88bd 00a2 98bd
00000200: 13b9 b13d b617 54bb 68a6 733d dc24 a93d
00000210: 9cbd e6bd a321 d33d 8d49 7b3c 69b0 fabc
00000220: f8dc 03be 3ede febd b54b d8bc 225c a9bd
00000230: 70e4 90bb bb4c 0b3c 9f80 50bb 36d7 43bd
00000240: f2d6 2bbd 23e6 863d 9f89 913d 9a0f 343e
00000250: e2fe 1c3e 913c 0dbe 2735 bc3c 563f 38bb
00000260: 14b4 e83d de88 16bd b990 973c fd92 b4bd
00000270: ec11 a73c 67d5 793d 94dd 5b3d 0b86 8dbd
00000280: 5caa 123e 8e54 903d 4d37 003d 3ae7 9cbd
00000290: 20a2 bc3c 9b2a fcbc b732 bdbd b3ae d43d
000002a0: a37e ffbc 0eee 51bd 7716 58bc bf21 d7bc
000002b0: c0cc e23c e324 a8bb 886d b6bc 5ced 83bc
000002c0: c083 8bbd c798 f63c 5d53 833d 1821 ddbd
000002d0: d4a5 1cbd 8ee3 133d 8c54 82bd 48dd e33c
000002e0: 8e29 eb3d f713 d03d cf81 343d ab0a 6b3d
000002f0: e32a 9fbc 6e3f a43d 4d20 5a3d ed46 d0bd
00000300: 2b4a 723d a02b a73d 20b3 84bc 3aa9 79bd
00000310: a0e1 083c 4b1f 6abd 4435 733d 5bb9 f73c
00000320: 7915 83bd 75b5 29bd 1e15 823d aeba 973c
00000330: 7bfc 22bc 43e9 f3bc c023 91bd 3973 f0bd
00000340: baab f9ba ff04 753d bccb 943d 0dae 23bc
00000350: 866f aabd dd35 e0bd 3749 243d e46e 293e
00000360: 6ba3 943d 693d db3c 0621 a13b 09a9 9abd
00000370: d461 fd3c 41de 483d 4ebb f5bd f4a1 babb
00000380: e638 3ebd 4383 803d 7a27 b43c 1208 473d
00000390: b6de c2bd 0892 47bd c703 74bd c80c 953d
000003a0: 03e5 213d 348b ad3d 9349 92bd 580b 583d
000003b0: 50bc 963c 4913 edbd e15a c3bd 2bf8 38be
000003c0: 8c52 2f3d 83e1 9c3c 4783 cdbd 40e4 50bd
000003d0: 35fe 5abd e7ad e5bd f6db 6cbd 42df 9e3d
000003e0: 2a4d 393d 0609 443d 9deb a6bc 58e1 e2bc
000003f0: 0526 053d b97e a1bd 778d 643d d491 c8bd
0.08209556 0.0887775 -0.019905897 0.079862416 -0.034156423 0.0034951088 -0.10461151 0.058772013
0.08598112 -0.12561491 0.050030872 0.0131831765 0.09430879 0.052824616 0.04751617 -0.022671722
0.065390736 -0.0143383425 -0.035108276 0.068945795 -0.065392114 -0.023223663 -0.044580225 0.07025585
-0.114264004 -0.028930355 -0.02806787 -0.08053611 0.027956845 -0.08163739 0.056746308 -0.079739705
0.09298595 0.057851646 -0.04576572 -0.012617481 -0.06439504 0.03261066 -0.06320273 -0.11579905
0.01382406 0.03755865 0.11740529 0.060134623 0.07965455 -0.0015832002 0.13285431 0.018979795
-0.049674198 -0.1035699 -0.055206425 -0.14179209 -0.0694274 0.016622024 0.025563065 0.03453608
0.044902936 -0.009807846 0.080538556 -0.071333386 0.12292395 -0.043865528 -0.027897608 -0.03568583
-0.20517929 0.010575549 0.13384531 -0.03656705 -0.021061448 -0.09070159 0.1572941 0.014097271
0.08008274 -0.08865207 -0.10752683 -0.03176347 -0.028470287 0.08355427 0.059701465 0.0734808
-0.12402733 -0.05869777 -0.041972686 0.04322659 0.07291291 0.0040500285 0.08895365 0.004921908
-0.061380565 0.023025641 -0.062041413 -0.072436966 0.036893878 0.06225112 -0.05830618 -0.070194386
0.11844981 -0.009443415 -0.011058258 -0.1449481 -0.04229191 0.0067963134 0.017298799 -0.051101003
-0.008500215 -0.08183438 -0.11390787 0.011229222 -0.07407662 -0.057470366 0.112636544 -0.0010893071
0.004187589 -0.081486255 -0.06273611 0.006806868 0.022170827 -0.1586554 -0.028104695 -0.04331346
0.07398102 -0.0416443 -0.016665814 -0.060112525 -0.06019031 -0.039498698 -0.066541776 -0.07452774
0.08677878 -0.0032362766 0.05948487 0.082589835 -0.11266634 0.1030915 0.01533736 -0.030601697
-0.12877262 -0.12444733 -0.026403287 -0.08269526 -0.004421763 0.008502181 -0.0031814945 -0.047812663
-0.041953035 0.06586864 0.07106327 0.17584077 0.15331605 -0.13792636 0.022974564 -0.0028113923
0.11362472 -0.03675162 0.018501626 -0.08817098 0.020394288 0.060994532 0.05367811 -0.06910332
0.143228 0.070473775 0.03130274 -0.076612905 0.023026526 -0.030782035 -0.09238189 0.10384884
-0.031188315 -0.051252417 -0.01318895 -0.026261209 0.027685523 -0.0051313504 -0.022269025 -0.016104393
-0.06812239 0.030102147 0.06412385 -0.10797328 -0.038244084 0.036105685 -0.06363782 0.027815476
0.11482535 0.10160058 0.044069108 0.05738322 -0.01942963 0.08019911 0.05325346 -0.10169778
0.059152763 0.08162618 -0.016198695 -0.060952403 0.008354574 -0.05715875 0.05937697 0.030239752
-0.0640058 -0.041432817 0.06351684 0.018521633 -0.009947891 -0.029774314 -0.07086897 -0.11740727
-0.0019048371 0.059819218 0.07265422 -0.009990227 -0.08322053 -0.109477736 0.040108886 0.16546208
0.07257732 0.026762681 0.004917267 -0.07551772 0.030930437 0.049040083 -0.11998616 -0.005695576
-0.04644098 0.06275036 0.02199148 0.04859168 -0.09515135 -0.04872325 -0.059573915 0.072778285
0.039525043 0.084738165 -0.071429394 0.052745193 0.018400341 -0.11575944 -0.09538818 -0.18063419
0.042803332 0.019150501 -0.10034805 -0.050998926 -0.053465087 -0.1121481 -0.05782696 0.07757427
0.045239605 0.047860168 -0.020376021 -0.027695343 0.03250696 -0.078854986 0.055798974 -0.097934395

model.0.bias f4 [512]
00000000: f437 663c dda3 623b 788f 9e3c 61c9 993c
00000010: 7ce8 b23d 4d3b c23d 15a8 353d 12f7 be3d
00000020: a47c b8bd 7e04 5f3d 6bfd 36bd 3db9 a9bd
00000030: 1873 a7bb 3d8b 323b 32d8 713c 8b34 633d
00000040: 2bc8 873d 3acc aebc 236f 413d 6320 77bc
00000050: 6da8 9bbc 2873 b5bd 571a e9b9 ada2 a73c
00000060: eeab 363b 2e6d 7dbd 6c84 3c3d 9f7c 1abc
00000070: a666 843d a2d1 cfbd 52a0 c5bd 612e 35bd
00000080: 3050 9fbc 1106 1e3c 2e09 8dbd 9555 2dbd
00000090: f8f3 d33c a132 993d 79ab 483d 7d17 b4bd
000000a0: e8d3 89bb f2ce 62bd b5e1 c43d d845 88bd
000000b0: a0e3 ae3c f336 983d 19ef 553d 13e6 813d
000000c0: 4f69 a63d b56b 1e3d 55b5 ca3d d758 623d
000000d0: 45ff 9c3c ff32 cbbd 2a57 cd3d 4318 41bd
000000e0: ba1d b0bd 49fa 853d 38ea a4bd 38aa fb3c
000000f0: 980f 0b3d 2d0d 2cbd fed6 a33d b774 e9bb
00000100: bad2 cabd 5883 bfbc fe56 2abd 2f94 21bd
00000110: 1a50 53bd 3ed0 93bd 30aa cabd 1508 3b3d
00000120: bec4 b4bd 934e 20bd c85a 673c db3b c13d
00000130: c7c1 633d e785 34bd c85c 853d 2284 18bd
00000140: 368e 17bb 897b 11bd 2455 ab3c 8b15 373d
00000150: b871 39bb cc76 5d3d eec0 3dbc c2b8 6fbd
00000160: c910 873d 97d4 9b3d 3ea6 e43c e3a2 8a3d
00000170: 3c6f acbd 2612 85bd 0c08 a33d 6150 9abd
00000180: bf52 f13b 1fad 8b3d 93e5 673c 2469 e5bc
00000190: 64ac a4bb 8c1c b5bc a253 8cbc 28ca babd
000001a0: c0a3 c73d c762 75bd 4339 fa3c 6b4d 86bd
000001b0: 31cf c33c 8d0a 053a 9dae 51bd 6608 113c
000001c0: 91c0 8fbc d15e 98bd fd1f 8d3d ed16 b6bd
000001d0: 3cee f23b ed16 353d f3e0 23bb daac 1f3d
000001e0: e6ee a8bc 3c15 e33a 064b 4abc 1dbe 54bd
000001f0: 4eed a4bd 72e2 b7bd 821e b7bc d8c4 89bd
00000200: d8ef b43c e7fc bdbb 3270 80bd c13f 73bd
00000210: f874 90bb 1818 5abd 320f 36bd 9a5b 4f3c
00000220: d888 81bc 011a 0dbd 4a46 b1bd f723 a63d
00000230: 4b98 e5bb 3bda ab3d caa3 333d f24f 113d
00000240: 3d12 a13d daf8 abbd cd58 b63d be7c 75bd
00000250: 113a 31bd 5f8b 6cbd 5914 fa3b 5092 943c
00000260: cec2 24bd cacb ce3d 6335 753d 0a3e fd3b
00000270: 3a4a 2ebd 1ffa 9d3d e59d b4bd d5f5 81bd
00000280: 9aa3 4bbb 0522 35bd be49 ce3d 7f09 81bd
00000290: 0ab7 903d 62a6 bd3d 7759 963d 3c0f 993d
000002a0: 5701 01bb a0d3 d4bc c9fa ea3c e2a0 d1bc
000002b0: c6b8 84bc d02c b53d 8821 be3d 6113 b33d
000002c0: 7fe1 213d 6f74 1d3d 4a29 883c 7866 063b
000002d0: 48f2 cfbd 6efb 8bbd f6d8 f83b 8783 9dbc
000002e0: 0aa6 a1bd d19f 8cbd c040 90bd bac5 cc3c
000002f0: 15e3 1eba c01e 193d 72fd 883c e51a 723d
00000300: e4a2 843d d50d 5cbb 70b8 a4bc 4562 033d
00000310: a3e3 153d 129c ec3c 1064 46bc 19fc df3c
00000320: 7aa0 c2bd e601 653d 894b 8f3d a6f6 b03d
00000330: 9916 c6bd 0fc9 b93c 58ff a33d 1f46 2cbd
00000340: bc22 4bbc 8544 c03c 3bda 963d e05c 5b3d
00000350: 88ff 48bd 7412 d3bd 4095 4f3c 0f5c 883d
00000360: fc3f bc3d bdd7 cf3d ef1b b0bc 811f c0bd
00000370: 8254 7a3d d4fa 86bd 8d7f 7f3d 1a36 3b3d
00000380: 1d81 43bd 5bdf c23a 9b8b ad3d 625e 55bc
00000390: 0105 c53c 1deb e43c c69a b33d a317 d03d
000003a0: 366b 3b3b 8388 893d 2512 a93d 4dd5 d5bc
000003b0: 2743 8fbd 756e 6c3d f041 af3c 7518 0bbd
000003c0: 4f19 b33d 942e 96bd 1555 9f3d 2d89 f9bc
000003d0: 18e9 6ebc 58ab a4ba 880d 3c3d 858e 953d
000003e0: 5e5f 5a3c 8f7f 35bd f2e7 853d 266e 783d
000003f0: 3969 9c3d 56ba 9dbb d4ee f2bb bc72 a33b
0.014051426 0.0034582533 0.01935552 0.018772783 0.08735749 0.09483967 0.04434975 0.09324469
-0.09008148 0.054447643 -0.044675272 -0.082872845 -0.005110156 0.0027243637 0.014761018 0.05547003
0.06629976 -0.021337617 0.04722513 -0.015083405 -0.01900121 -0.08859855 -0.00044460848 0.020463312
0.0027873474 -0.0618717 0.046024725 -0.009429126 0.06464891 -0.10147406 -0.09649719 -0.044233683
-0.019447416 0.009645001 -0.068865165 -0.042317946 0.02587317 0.0748036 0.048991654 -0.087935425
-0.0042061694 -0.05537314 0.09613363 -0.06653947 0.021348774 0.07432356 0.052229974 0.06342711
0.08125555 0.038676936 0.098978676 0.055260506 0.01916469 -0.09921836 0.10026391 -0.04714228
-0.0859942 0.06541879 -0.08052486 0.030720815 0.03395042 -0.042004753 0.07999991 -0.007124509
-0.09903474 -0.02337806 -0.04158687 -0.03944796 -0.051590063 -0.072174534 -0.09895742 0.045662005
-0.08826588 -0.039137434 0.014120765 0.09435245 0.055604722 -0.04407301 0.06511837 -0.037235387
-0.0023125536 -0.035518203 0.020914622 0.04469828 -0.0028296541 0.05406837 -0.011581643 -0.05852581
0.065949984 0.07608908 0.027911302 0.067693494 -0.08419654 -0.06497602 0.07960519 -0.07534862
0.0073646004 0.068201296 0.014153856 -0.028004237 -0.0050254334 -0.022108339 -0.017129723 -0.091205895
0.0974803 -0.059908655 0.030544883 -0.06557735 0.023902507 0.00050751196 -0.051191915 0.0088521
-0.017547878 -0.0743996 0.06890867 -0.088910915 0.0074136537 0.044211317 -0.0025005906 0.038983203
-0.020621728 0.0017325054 -0.012346989 -0.05193912 -0.08053075 -0.08978738 -0.022353414 -0.06726998
0.022087023 -0.0057979706 -0.062713996 -0.059386972 -0.004408475 -0.053245634 -0.044448085 0.012656117
-0.015812322 -0.034448627 -0.08655985 0.081123285 -0.00700668 0.083912335 0.043857373 0.035476632
0.07864807 -0.08397074 0.08903656 -0.059933417 -0.043268267 -0.057750102 0.00763182 0.018136173
-0.040224843 0.100974634 0.059865367 0.007728343 -0.042551257 0.077137224 -0.088191785 -0.06345717
-0.0031072856 -0.044221897 0.10072659 -0.06300639 0.07066162 0.09260251 0.07341283 0.07473609
-0.0019684636 -0.025979817 0.028684037 -0.02558941 -0.016201388 0.08846438 0.09283739 0.087439306
0.03952169 0.038441118 0.01662125 0.0020507853 -0.10153633 -0.06835066 0.007594223 -0.019227756
-0.078929976 -0.0686642 -0.070436 0.024996627 -0.00060610595 0.03738284 0.016722415 0.05910768
0.064763814 -0.003357758 -0.020107478 0.03207614 0.036594044 0.028883014 -0.012108818 0.02734189
-0.09503265 0.055910014 0.06996829 0.086407945 -0.09672279 0.02267888 0.08007687 -0.04205906
-0.012398418 0.023470173 0.07365843 0.05355537 -0.04907182 -0.10306254 0.012669861 0.06658184
0.091918916 0.10148571 -0.021497695 -0.09381009 0.06111575 -0.065908104 0.0623775 0.045705892
-0.047730554 0.001486759 0.08473893 -0.013022991 0.024050238 0.027944142 0.08769755 0.10160758
0.0028597838 0.06715491 0.08255414 -0.026102686 -0.0699523 0.057722528 0.021393746 -0.03395887
0.087450616 -0.07333103 0.077799 -0.030460918 -0.014581941 -0.0012563271 0.045911342 0.07302574
0.013328401 -0.044311102 0.06538381 0.06065192 0.07637257 -0.0048134727 -0.0074137244 0.0049880426

model.1.weight f4 [512]
00000000: 3883 713f 864c 803f 306b 813f 33f3 823f
00000010: 7840 843f deb4 793f b264 823f b5d3 7b3f
00000020: b5ce 823f 8122 713f e41d 7c3f 632b 723f
00000030: e7b5 7c3f b3da 843f 3014 7d3f 9d28 7e3f
00000040: a6b8 763f 9c36 833f c2cf 7a3f 1e76 823f
00000050: a769 7d3f c55e 843f ca53 813f ce1c 823f
00000060: c07e 6f3f e320 7d3f bca0 773f 850e 793f
00000070: 8cd8 7a3f dac7 823f c473 7f3f 30fa 7d3f
00000080: 200f 733f 8d8e 7f3f 0a39 843f 31bf 7b3f
00000090: da18 843f d7f6 763f 1b7f 7d3f ed96 793f
000000a0: 645f 7d3f 3858 7e3f 4800 843f 2d6c 863f
000000b0: 180d 7c3f b89e 863f 2841 803f 963b 823f
000000c0: 93b6 7e3f 42a9 7f3f 3266 7f3f 15b0 773f
000000d0: 1cb7 813f 8e27 7a3f 5607 7c3f 045c 7a3f
000000e0: 93f3 783f df26 793f df3b 8a3f 3f20 823f
000000f0: 794a 743f 5da4 803f 5a01 833f c8ab 7e3f
00000100: ea73 803f 9db8 7a3f 181b 7f3f 7692 813f
00000110: 704c 853f b043 833f da9e 843f dd59 803f
00000120: c30c 7b3f f17d 843f 72f0 803f 066a 823f
00000130: 3629 863f add4 7b3f 7b1e 773f 0f08 773f
00000140: 0428 7d3f 6751 7d3f c083 803f b70b 823f
00000150: fe61 803f c175 833f 0a3d 743f c7b9 7b3f
00000160: f801 753f dbd9 7a3f 4046 813f 4663 7b3f
00000170: 28be 743f daef 823f 435d 7b3f 6bf5 803f
00000180: 1ada 7f3f 4d56 693f a6b0 823f 603a 803f
00000190: 2254 7f3f fcd6 843f 9a8b 7e3f ace5 7d3f
000001a0: 91ae 863f 431b 7e3f fb5c 843f e3a8 863f
000001b0: c59b 803f bee4 843f bf98 7d3f 66b0 7f3f
000001c0: 3670 823f 033c 843f 316b 783f 320a 803f
000001d0: b912 813f 271f 803f 1ef1 813f 99d6 783f
000001e0: 1a2b 813f cfb0 823f 36e8 7f3f 84f1 823f
000001f0: 2dca 7a3f 2950 763f 1d6f 773f 7a0e 7c3f
00000200: e95e 833f f8a4 7d3f 863d 7f3f c9ce 853f
00000210: 4127 823f 46f8 743f d2aa 773f fda9 793f
00000220: e00f 813f 21a9 803f 560b 823f 6a57 7c3f
00000230: d170 783f d993 7e3f 435a 733f 3787 783f
00000240: 29af 843f 647b 703f 64ab 813f 3b7a 763f
00000250: 6d96 733f c532 713f 9269 743f e55e 7e3f
00000260: 55e0 7f3f 0dcd 813f 5d25 823f 92f6 7c3f
00000270: cb2b 803f 13a5 783f 1505 803f b05f 833f
00000280: db55 7d3f 44ff 7f3f fc4f 7b3f 5aa7 843f
00000290: e52c 823f fbf2 853f cf73 823f 5b20 803f
000002a0: 9f96 7e3f a520 7f3f add3 7f3f 0136 783f
000002b0: be4f 7c3f 8fe3 7f3f 4077 7a3f 1812 7a3f
000002c0: b678 7c3f 1dce 843f 4225 773f 0d49 7e3f
000002d0: fbb7 723f 3000 843f 6add 853f 9b35 733f
000002e0: 6a98 7f3f 65cf 793f 2e7a 763f 87fa 823f
000002f0: c0b2 7e3f 5296 823f 2506 813f 541b 823f
00000300: 6a10 7c3f 8824 813f 3cc7 803f bd8b 783f
00000310: 714b 823f 1522 7d3f b63e 813f 6d86 6e3f
00000320: 4905 833f 5d45 813f 387f 813f 2339 743f
00000330: bcdb 853f 6235 7e3f 470a 853f 4bac 823f
00000340: 9169 813f 78f2 7b3f 4109 853f d092 813f
00000350: c497 7e3f ccf5 863f 986b 803f 81c5 813f
00000360: 3df6 7d3f e265 813f 721a 813f 637c 853f
00000370: f967 7f3f 3e36 723f f9ac 823f fc75 7f3f
00000380: 9f70 7f3f e32c 7d3f 8e27 863f 5c6d 6d3f
00000390: c4cd 813f d953 713f 92bf 723f 03bc 853f
000003a0: 369a 813f 5b5d 7f3f fb30 723f 39ff 793f
000003b0: 9407 7f3f ac86 823f 1bb9 803f 1f76 863f
000003c0: cedd 753f 97ff 753f 25b5 7c3f c6eb 833f
000003d0: d85e 773f 305d 813f 3d62 723f 0ca4 753f
000003e0: 3ebe 853f a92b 833f bcc1 7d3f dd57 7d3f
000003f0: 681f 813f 535a 763f 0dbe 803f 7d52 7f3f
0.9434085 1.0023353 1.0110836 1.0230469 1.0332174 0.97541606 1.018698 0.98369914
1.0219332 0.94193274 0.9848311 0.9459745 0.9871506 1.0379242 0.9885893 0.9928072
0.963755 1.025104 0.97973263 1.0192297 0.9898934 1.0341421 1.0103695 1.016504
0.9355278 0.98878306 0.96729636 0.9728778 0.97986674 1.021724 0.9978602 0.9920988
0.94944954 0.9982689 1.0329907 0.9833861 1.0320084 0.964704 0.9902207 0.9749592
0.9897368 0.9935336 1.0312586 1.0501763 0.9845748 1.0517187 1.0019884 1.0174434
0.99497336 0.9986764 0.9976531 0.96753055 1.0134006 0.97716606 0.98448694 0.97796655
0.97246665 0.9732494 1.0799521 1.0166091 0.95426136 1.005016 1.0234787 0.9948087
1.0035374 0.9793795 0.99650717 1.0122821 1.0413952 1.0255032 1.0360978 1.0027424
0.9806635 1.0350934 1.0073378 1.0188606 1.0481327 0.9837139 0.96530885 0.9649667
0.98889184 0.98952335 1.0040207 1.0159825 1.0029905 1.0270311 0.9540564 0.9833035
0.9570613 0.9798867 1.0099564 0.98198354 0.95602655 1.0229447 0.9818918 1.0074896
0.9994217 0.9114731 1.0210159 1.0017815 0.9973775 1.0378108 0.99431765 0.99178576
1.0522023 0.9926035 1.0340875 1.052029 1.0047537 1.0382307 0.990612 0.9987854
1.0190494 1.0330814 0.9703856 1.0003111 1.0083839 1.0009507 1.0151708 0.9720245
1.0091279 1.0210208 0.999637 1.0229955 0.97964746 0.96216065 0.9665392 0.9845959
1.0263339 0.9907985 0.9970325 1.0453731 1.0168229 0.95691335 0.96745026 0.97525007
1.008297 1.0051614 1.015971 0.98570883 0.97047144 0.9944435 0.95059603 0.9708132
1.0365955 0.9393828 1.0130429 0.9628026 0.95151407 0.94218093 0.9547359 0.9936355
0.9995168 1.0140702 1.0167652 0.98813736 1.0013365 0.97126883 1.0001551 1.0263577
0.9895913 0.9999888 0.9816892 1.0363572 1.0169951 1.0464777 1.0191592 1.0009874
0.9944858 0.99659187 0.99932367 0.96957403 0.98559177 0.999566 0.9783821 0.9768386
0.9862169 1.0375401 0.96541226 0.99330217 0.9481198 1.0312557 1.0458195 0.9500367
0.9984194 0.97582084 0.9628018 1.0232705 0.994915 1.0202124 1.008 1.016459
0.98462546 1.0089273 1.0060802 0.97088224 1.0179273 0.9888013 1.0097263 0.9317387
1.0235988 1.0099293 1.0116949 0.95399684 1.0457683 0.99300206 1.0393761 1.020883
1.0110341 0.9841685 1.0393449 1.0122929 0.99450326 1.0543761 1.0032835 1.0138398
0.99203855 1.0109217 1.0086195 1.0428585 0.99768025 0.94614017 1.0209037 0.99789405
0.9978122 0.98896617 1.0480821 0.92744994 1.014092 0.94268566 0.94823563 1.0448002
1.0125186 0.99751824 0.9460599 0.97655064 0.9962094 1.0197349 1.005649 1.0504798
0.9604157 0.96093124 0.98713905 1.0306327 0.96629095 1.0106564 0.9468115 0.9595344
1.0448682 1.0247699 0.9912374 0.98962194 1.008771 0.96231574 1.0057999 0.9973524

model.1.bias f4 [512]
00000000: 2e53 09bd 08f3 69bd 1e22 edbc 4356 3dbd
00000010: d916 bfbc 0655 c4bd 0b6e 0cbd ba86 69bd
00000020: fc0c 16bd 63c9 bcbd f28b a0bd d7eb 96bd
00000030: c7f6 49bd b2d0 2dbd c0ee adbc 2e6c ffbc
00000040: 859f 12bd ade9 94bd 760b 74bd bafd f9bc
00000050: 0487 81bd 0b3e 23bc 6285 4fbd 3f4c 043c
00000060: 8106 ecbd bcdd d9bd 4e12 a2bd afc7 a9bd
00000070: 29be cdbc 29ca 86bd 7452 a6bd 5182 3abd
00000080: d930 71bd 200d 88bd 367c 87bd 4d2a ddbd
00000090: 0c6a a1bd eb83 bdbd 3cde 84bd e246 26bc
000000a0: 9f77 b43b b03c cebd 80d0 14bd 401a c5bd
000000b0: 6f12 f6bc 8520 4f3d 33fe 03bd 3d3d 20be
000000c0: 208d 2fbc b3ae c1bc 6a36 6ebd bdfb 59bd
000000d0: 239b febc 4bb7 afbd 59ae dfbd adeb 10bd
000000e0: 950f 51bd 77b8 19bd bd55 0bbe 3a27 c9bc
000000f0: 8c1a 2cbd b2bb 26bd 5594 7bbd 0930 19bd
00000100: edad 5cbc e7f4 10bc 91b4 88bd 34fa b53b
00000110: 1d1e e73b 19c3 17bd de20 03bd be27 1ebd
00000120: 69d0 c5bd 76ab edbc 38c9 62bd 95ad 323d
00000130: 886e 62bd c454 92bd 1ba7 8dbd ee7f 9ebd
00000140: 1334 2bbd 8fa1 c5bd 56c2 79bd 1fbc c5bc
00000150: 7b43 73bd 9600 d5bc b9a3 43bd d46a 49bd
00000160: 48af 88bd cc7f abbd 558a babd 778f 04bd
00000170: ee77 eebc f078 84bc 8019 f0bd 1dfd 5ebc
00000180: 0697 81bd 79be b1bd 2508 bcbc 3016 53bd
00000190: 3d8a 52bd 9f32 69bd 8bca 03bc 1820 bdbd
000001a0: f0c7 1fbd 7d20 87bc a033 63bd 9fe2 f8bd
000001b0: 3e3c 9ebd cba4 eebc 4fa9 0cbd 3521 92bd
000001c0: 217b 11bd f56c b6bc 530c 74bd 8335 c8bd
000001d0: 7d00 6abd 37a3 aebd 6bf8 2fbd 7c88 c7bd
000001e0: 4a0f a6bd cdf5 9fbd 230c a6bd 2abc 513c
000001f0: 971d a8bd 4b73 7ebd f068 81bd 9fa8 89bd
00000200: 8239 b1bc 9ee2 fcbc 2f1f 27bd 0082 2ebd
00000210: 5882 60bd a1ca abbd 0d33 7ebd 22d5 c2bd
00000220: 5d04 5abc f374 aabd b905 8abd b76c 3b3b
00000230: 846a 89bd d2d9 3cbd 0ad8 a6bd 6cf3 bebd
00000240: 792d 2a3c f045 82bd ade2 99bd 5858 a0bc
00000250: cb3e 7abd 886d c7bd bf13 adbd c133 423d
00000260: 2748 a9bd ba87 98bd 82c9 19bc 217b b1bc
00000270: 0f1e c8bd 94ef 82bd 09cf c1bc d7e6 983c
00000280: 0142 87bd afda 00bc 81ec b2bd d5de 2fbd
00000290: 3a6f 61bd d620 a5bd 8372 0bbc 12f2 95bd
000002a0: 25ca 31bd 735b 94bc d17f 44bd 7ec5 91bd
000002b0: 280c a1bd 4f83 e7bd 6543 a3bd 0a20 cabd
000002c0: 0bbe 10bd d94b abbc e146 63bd 7ead abbd
000002d0: dc42 11be a0ec 98bc a70b 1c3d 62e7 06be
000002e0: 59cb e8bc 5466 cfbb cb97 71bd b5bb 57bd
000002f0: 2e7e babd 31ef acbc 845a 20bd c056 a2bd
00000300: 4a9e 94bd eb56 fdbd 98b5 bbbd 85dc 15bd
00000310: c19b 61bd c07e 51bc fc24 cebd dff1 9dbd
00000320: 7b23 1dbe f6d7 e3bd 1235 bcbd 101c acbd
00000330: 83da 8dbd 6eab 89bd 1388 87bd a44d 35bd
00000340: e692 9fbd 9ea3 c9bd 0f3c 4dbd 92fe ebbc
00000350: 25bf 36bd 00ef f8bd 93f2 93bc cd9d 49bc
00000360: 1c61 afbd ea2b 2cbe 5036 09bd b557 1ebd
00000370: eeaa 92bd 04cb 9cbd 7408 0c3d 817e a3bc
00000380: 09f5 d6bd c4c4 01be b288 7bbd 4486 b4bd
00000390: 5e14 3abd 5242 a6bd 48cb 8ebd 4f01 b0bd
000003a0: d3ef b0bd 6489 76bd bfb4 04be 49d7 e9bd
000003b0: a893 c9bb 934b 91bc a604 27bd c5fe b3bd
000003c0: 3fe6 2abe a8e4 e33c 7c30 5bbc 9535 b9bd
000003d0: 0a0e 09bd 85dd 87bd c532 d7bd 679c 6cbd
000003e0: 1f27 efbd b577 b5bd ddc4 96bd a9e9 e5bd
000003f0: 69b6 87bd 5276 cabd 0f45 7ebd a97c b7bd
-0.033526592 -0.05711654 -0.028946932 -0.046224844 -0.023326324 -0.095865294 -0.034284633 -0.05701325
-0.036633477 -0.09218099 -0.078391925 -0.07369202 -0.04930761 -0.042435355 -0.021232009 -0.031179514
-0.03579666 -0.072711326 -0.059581243 -0.030516494 -0.0632458 -0.009963523 -0.050664313 0.008074819
-0.11524678 -0.106379956 -0.079136476 -0.0829004 -0.02511509 -0.06581528 -0.081211954 -0.045534436
-0.058884475 -0.066431284 -0.06615488 -0.10799084 -0.07881555 -0.09253677 -0.064877 -0.010148736
0.005507424 -0.10070169 -0.036331654 -0.096241474 -0.030038087 0.050568122 -0.032224845 -0.1564836
-0.010714799 -0.023642873 -0.058157362 -0.053218592 -0.031079834 -0.08579882 -0.10921926 -0.035381008
-0.05104025 -0.037529435 -0.13606925 -0.024554837 -0.042017505 -0.040706344 -0.061420757 -0.037399326
-0.0134692015 -0.008847452 -0.06675065 0.005553508 0.0070531503 -0.037051294 -0.032013766 -0.03861212
-0.09658892 -0.029012423 -0.05536768 0.043622572 -0.055281192 -0.07145074 -0.069166385 -0.077392444
-0.04179771 -0.096499555 -0.06097635 -0.024137555 -0.059390526 -0.026001256 -0.04776356 -0.049174145
-0.06674057 -0.08373985 -0.09108416 -0.03236338 -0.029109921 -0.016170949 -0.11723614 -0.013610152
-0.063276336 -0.08678908 -0.022953102 -0.05153483 -0.051401366 -0.05693304 -0.0080438955 -0.09234637
-0.039009035 -0.016494984 -0.055469155 -0.121525995 -0.07726334 -0.029131314 -0.034341153 -0.0713524
-0.035517816 -0.022268752 -0.059582066 -0.097758316 -0.057129372 -0.085272245 -0.04296152 -0.09742829
-0.08108385 -0.07810555 -0.08107784 0.012801209 -0.08208769 -0.06212167 -0.06318843 -0.06721615
-0.021633867 -0.030869778 -0.040801223 -0.042604446 -0.054811805 -0.08388258 -0.062060405 -0.09513308
-0.013306704 -0.083230875 -0.06739373 0.0028598735 -0.06709769 -0.046106167 -0.08146675 -0.09323773
0.010386818 -0.06360996 -0.07513938 -0.019573376 -0.06109504 -0.09737688 -0.08451032 0.047412638
-0.08265715 -0.07447763 -0.009386422 -0.021665158 -0.09771358 -0.06393352 -0.023658292 0.01866476
-0.06604386 -0.007864638 -0.08736516 -0.04293712 -0.055037715 -0.080629036 -0.008511188 -0.07321562
-0.04340567 -0.018110013 -0.047973458 -0.07117747 -0.07863647 -0.11304342 -0.07971839 -0.09869392
-0.03533749 -0.02091019 -0.055487517 -0.083827004 -0.14185661 -0.01866752 0.03809705 -0.13174203
-0.028417276 -0.006329337 -0.05898265 -0.052669246 -0.09106098 -0.02111015 -0.039148822 -0.079267025
-0.07256754 -0.12370094 -0.09165496 -0.036587257 -0.05508018 -0.012786567 -0.10065648 -0.07712149
-0.15345566 -0.11125176 -0.0918981 -0.0840379 -0.069264434 -0.06722151 -0.06617751 -0.044263497
-0.077916905 -0.098456606 -0.050106104 -0.028807912 -0.044615883 -0.12154961 -0.018060004 -0.012305689
-0.08563444 -0.16813627 -0.033499062 -0.038657863 -0.071615085 -0.0765591 0.03418775 -0.019957783
-0.104959555 -0.12672716 -0.06140966 -0.08814672 -0.04542958 -0.08118118 -0.069723666 -0.085939996
-0.08639493 -0.06018962 -0.12959574 -0.114180155 -0.006151635 -0.017736232 -0.040775917 -0.08788828
-0.16689394 0.027818993 -0.013378259 -0.09043423 -0.033460654 -0.06634048 -0.105077304 -0.057766344
-0.11677384 -0.08860723 -0.073617674 -0.11226208 -0.06626589 -0.09885849 -0.06207758 -0.08959324

model.1.running_mean f4 [512]
00000000: 5a95 72bd 75cc 25bd 8aef 15be f011 0e3d
00000010: f132 5f3e 3d85 003e d903 7c3d e71a 0d3e
00000020: d08a 1bbe 739c 253e df04 823d 4fbe 2dbe
00000030: 90c7 23be dffa e43c c67a 983d 7c8a f33d
00000040: 521e 8f3e 4e5b a93c 834c 773d b777 04bd
00000050: 14c3 efbd 3bbb e93c 94fb f33d 7a8c 42bd
00000060: 9d1d d8bd 18fa b2bd 3699 f23d d87a 09be
00000070: 7702 873e 5cc9 1bbe 6304 3ebd 3c2f d7bd
00000080: de5d aa3d aeaf 083e a7d4 4e3e 29a7 8bbe
00000090: f2de 493e 5289 063e e1b4 5b3d 2e95 35bb
000000a0: 8db6 113c 2f23 45be 64eb 0c3e 6997 7fbd
000000b0: 6bd6 323e 04d0 9b3e 1aad 383d aa97 b23b
000000c0: 9182 663e 446a 50bc 32c5 2e3e c6e5 cf39
000000d0: 28aa 313d c4bb 553d 45d9 143e 5770 fd3d
000000e0: 2184 2ebe 777a ac3d f8ba 7fbd be63 3c3d
000000f0: 24b7 7dbc a43d acbc 13d2 093e eb56 4cbe
00000100: 8b35 153e 9ccd 5d3e 2cbc 84bd 7a6c bf3b
00000110: e763 f5bd f5af aa3d ed70 febd 551a 123e
00000120: 229a a03d 137c 8cbd baca 8bbc 6953 b43d
00000130: ac93 423d 02e7 0b3e 2db0 973d b699 f1bd
00000140: ef24 b23d 694c 2b3e 4368 1f3e d986 e5bc
00000150: 11a6 823d 3e3e 3dbb 67bd 333d 4c5f ac3d
00000160: 66ce a63d 362b ddbd bb34 09bd 10de 6d3c
00000170: 23c9 81bd 683a a63d bc8f 663e 4a42 f6bd
00000180: 6333 80bd 4030 b0bd 1cde 013e fb39 a03d
00000190: 8502 c7bd 5b04 543d ec52 9b3d de89 643d
000001a0: 99c7 403d b8e6 fe3d 491b d0bc da53 14bd
000001b0: f7b1 d33d 9b37 a63d b221 15be 223d a4bd
000001c0: e60f 23bd 7f28 15be 84ff f53d 84af 3abc
000001d0: 530c 713d ea9b 693d 5b02 813d 921b 1a3d
000001e0: 40f2 5abe 4c5d d8bd daf4 a3bd 5fb0 413d
000001f0: c153 0ebe 70c0 11be 7dfa c63d f2a4 60bd
00000200: 7d34 d33d 1616 2d3e 1ea2 32bc 2475 b83d
00000210: 2ba8 723c 6613 9b3d 0add 99bd 1049 b23d
00000220: 3415 3a3e 890b 823d 4024 0cbe edfe 71bd
00000230: 65ca 943d 5829 393d cd2a bfbb 5a77 8f3d
00000240: 0092 fa3d 528d 15be 21c0 a03e a6cb 68bc
00000250: 506c 163d 81ac 5abd 37ce 1f3e 68f7 28bd
00000260: b1cd 03be e9b1 d4bd 0b75 1e3c f99a e6bd
00000270: af51 103d 4468 333d b25d 1cbe cc69 183e
00000280: bb77 853d 72a8 f43d 3b75 413d b870 2abe
00000290: 0713 133d 6823 8a3d f634 c03d 4ffa 9e3d
000002a0: f035 e8bc c2f1 2fbe 5616 4a3e dd38 65bd
000002b0: 6559 f3bc 10d2 a53d 8e04 8c3e 24bd 603e
000002c0: 471f 32bb 726b 323e 8e16 ba3d d081 3c3e
000002d0: dc51 9d3d e41f a2bd 1ad3 2fbd faaa 7abe
000002e0: 5081 4dbe e5c4 9bbe 1e31 733b fbc6 40be
000002f0: 08a1 043e a2ad 5c3e 929d 76bc 6eb7 963b
00000300: f731 893c a005 8bbe ef26 e43d 9e60 04be
00000310: 37bd cb3d 5b63 a03d 50e3 82bd edc3 15be
00000320: e304 13be 1c74 d1bd e8fe 153e 95e4 2a3e
00000330: c8cf 4dbe 1e68 223e b0ff 0e3e bc00 e13c
00000340: ee12 74be 57ce fb3c f2dc 503e 0110 083e
00000350: 8360 d7bd 4b86 e7bd d61e a63e 4562 1e3e
00000360: d23a 0f3e 6269 e03d 803c ff3c f595 42be
00000370: 6641 133d 2e89 84be d5a9 2d3d 46c7 aa3b
00000380: 25fc 5cbd b37f 283e d223 c53d e21f 203d
00000390: f0df e7bd 1ae2 a73c f536 503e b3ac 703e
000003a0: 5441 003d a0a4 ec3d 1189 593e 58b0 41bc
000003b0: edcd 35be cbc6 db3d c056 8abd 88f6 823d
000003c0: 4727 313e 24a4 1bbe f98b 263c e63f 473c
000003d0: c91f b6bd 4eab f03d bca7 eebc 8301 a03e
000003e0: 7ffc 403e 7913 40be e741 bb3e 0af8 aa3d
000003f0: d659 573e bbca e03d 3162 763d fc03 893e
-0.059224464 -0.04047819 -0.14642158 0.034685075 0.21796776 0.12550826 0.061527107 0.13779794
-0.15189672 0.16172962 0.06348585 -0.16967128 -0.15994096 0.027951656 0.07445292 0.11891648
0.2795282 0.02067342 0.0603757 -0.03234073 -0.1170713 0.028531661 0.11913219 -0.04749725
-0.10552523 -0.08739108 0.11845629 -0.13425767 0.26369068 -0.15213531 -0.046390902 -0.10507056
0.08318685 0.13348266 0.20198308 -0.2727597 0.19713953 0.13138321 0.053639296 -0.0027707326
0.008893621 -0.19251703 0.1376167 -0.062400255 0.17464606 0.3043214 0.045086958 0.0054502087
0.22510745 -0.012720648 0.17067412 0.0003965331 0.043375164 0.05218102 0.14536007 0.12374943
-0.1704259 0.08421796 -0.062434167 0.04599356 -0.015485559 -0.021025486 0.13459043 -0.19955032
0.14571206 0.21660465 -0.064812034 0.005841789 -0.119819455 0.083343424 -0.12423883 0.14267857
0.078418985 -0.06859603 -0.017064441 0.08804972 0.047504112 0.13662341 0.0740665 -0.11796896
0.08698451 0.16728367 0.15567116 -0.028018402 0.06379331 -0.002887621 0.0438818 0.08416614
0.08144836 -0.107992575 -0.033497553 0.014518276 -0.06337192 0.08116609 0.22515768 -0.120243624
-0.06259801 -0.08602953 0.12682384 0.07823559 -0.097172774 0.051761966 0.075841755 0.055795543
0.04706535 0.1244635 -0.025403636 -0.03621278 0.103366785 0.08116075 -0.14563635 -0.08019473
-0.039810084 -0.1456623 0.12011626 -0.011394385 0.058849644 0.057033457 0.062992774 0.03762395
-0.21381474 -0.1056467 -0.08005686 0.04728734 -0.13899137 -0.14233565 0.097157456 -0.054844804
0.10312746 0.16902956 -0.01090291 0.09006718 0.014810602 0.07572059 -0.07512863 0.08705342
0.18172151 0.063498564 -0.13685703 -0.059081007 0.07265166 0.045205444 -0.0058339597 0.070051864
0.122348785 -0.1460469 0.31396583 -0.01420871 0.03672439 -0.05338717 0.15606008 -0.04125157
-0.12871434 -0.10385496 0.00967146 -0.112600274 0.03523415 0.043800607 -0.15270117 0.14884108
0.065169774 0.11946191 0.04723094 -0.16644561 0.035906818 0.067450345 0.093851015 0.07762586
-0.028346032 -0.17182067 0.19735083 -0.055962432 -0.029705713 0.08096707 0.27347225 0.21947151
-0.0027179287 0.174238 0.09086333 0.18408895 0.07681629 -0.07916239 -0.04292593 -0.24479285
-0.2006886 -0.30423656 0.0037108134 -0.18825905 0.12952054 0.2155061 -0.015052216 0.0045995032
0.016747458 -0.2715273 0.111402385 -0.12927482 0.09948199 0.078314506 -0.06391013 -0.14625521
-0.14357333 -0.10227224 0.1464802 0.1668876 -0.20098794 0.1586003 0.13964725 0.02746617
-0.23835346 0.030738039 0.20396784 0.13287355 -0.10516455 -0.11304911 0.324454 0.15467174
0.13987282 0.109576 0.031156778 -0.19002517 0.03595104 -0.2588591 0.042398293 0.0052117435
-0.0539514 0.16454963 0.09625973 0.039092906 -0.113220096 0.020493556 0.20333464 0.2350338
0.0313123 0.11554837 0.21243693 -0.011821829 -0.17754336 0.10731276 -0.067548275 0.06394678
0.1730014 -0.15199333 0.010165208 0.012161231 -0.08892781 0.11751424 -0.029132716 0.31251153
0.1884632 -0.18757428 0.36573717 0.08348091 0.21030363 0.10976168 0.060152236 0.26760852

model.1.running_var f4 [512]
00000000: ecbc a93d 428e 093e 2867 1c3e 09b7 fa3d
00000010: a1be c13d 2459 ad3d d176 bd3d 30e1 103e
00000020: 78c2 6d3d 3f1f 083e 72f9 853d 9cc4 8d3e
00000030: 7d8d 103e 412f 6e3e 96e6 ed3d 0d72 133e
00000040: 2ea5 323e 709e cf3d f340 c43d 211b c83d
00000050: 1d96 203e 40c1 c43d 15cd f83d 70ad b33d
00000060: 049c 893d 2457 073e 993a 3c3e b165 103e
00000070: 37c3 a33d ef10 df3d 019a 0f3e 1a9d c73d
00000080: be3a d43d ffde d63d 2ee7 c43d d2f2 843d
00000090: f695 af3d 8fc8 d63e 11c9 c73d 822d 083e
000000a0: 6b59 ad3d 606f a73d 29f2 983d d8c6 d23d
000000b0: 27aa a23d c083 043e ab5a 883e 19c1 bd3d
000000c0: c04c 0f3e 75a3 143e a767 cb3d 8baf f13d
000000d0: c253 d33d b690 d23d 1dcd d03d 4ec7 e03d
000000e0: 087c b53d f0ce 2d3e 7a9c e33d b082 d23d
000000f0: 6b04 1e3e 75ce dd3d 974f 123e 3f9a 2f3e
00000100: 846c 0e3e 970e f03d 4f90 8c3d 0a3e a33d
00000110: cc1d 033e 1288 033e 158f a43d 96ff 863d
00000120: 6746 f63d 9fac eb3d 106a f03d daf6 1c3e
00000130: a306 b13d cbab 6a3d 5640 da3d 6b92 f23d
00000140: 8de2 583e adf0 343e 7119 c83d 5273 4a3e
00000150: f2c9 043e 6d11 183e 01d3 fd3d 3dc0 ed3d
00000160: eda5 103e 0acf d33d 9c3f c43d dc4a 733e
00000170: f286 b03d fcbc f83d d51b 8c3d f4da 103e
00000180: 578e df3d bcb1 ba3d 221a 943e 8dca e53d
00000190: 27c1 bd3d 8980 9a3d e266 a63d 2243 fe3d
000001a0: 5b31 283e 2c05 553e 2164 113e 73b8 f73d
000001b0: 4622 cf3d 3400 b63d d760 ef3d f1f6 ab3d
000001c0: 9b32 ea3d 9ec6 8f3d 0c02 9f3d 912d 133e
000001d0: 5448 bc3d 9d10 d73d 493d 6c3e 8ecf 0a3e
000001e0: 0b07 883d c0e2 a43d 2663 be3d c5e7 153e
000001f0: 99f9 093e 8ca9 dd3d c0d5 923d 60b9 a83d
00000200: 8a88 193e 84d7 d03d 2e21 be3d fb16 df3d
00000210: 6e7a 063e 7d9e f53d 2aa6 2f3e 54bd a83d
00000220: 0cad a63d 9128 113e 8c52 cb3d e23d d83d
00000230: 1fe0 c63d fd39 ee3d f1fa c33d 9eef 283e
00000240: c801 c83d 3102 353e e4ff d23d 22bc c73d
00000250: 906c d43d ad78 cf3d f2ef b53d 74d1 c53d
00000260: b77e c63d 6e13 9a3d 98a0 173e 1986 d93d
00000270: 8fdd 973d bfdb 013e 3da0 1d3e 7066 243e
00000280: bfd4 453e 41e8 413e 0513 963d 71ff b33d
00000290: 4f20 163e a663 f93d f408 de3d c3ac 063e
000002a0: 94b6 ac3d 6cfe f63d 1cba c73d 63da 0b3e
000002b0: 294b 1d3e 8ab5 273e ae71 063e 97b6 9d3d
000002c0: 03ff fa3d 251d 9b3d cdef b23d 0e51 6a3d
000002d0: a158 d73d 6a3b ac3d b716 863d e6d0 d03d
000002e0: 44ac 653d f9d5 a73d 47f0 1a3e a3c6 b03d
000002f0: db35 063e f60d d53d b944 e63d 79b8 1f3e
00000300: 0da9 093e 1b71 f93d c448 9c3e a770 213e
00000310: 92aa 013e 27ed 313e b116 d33d 2f55 bc3d
00000320: 0b9c 903d 9b55 213e 90c9 2c3e 81db 8a3d
00000330: ab2e f43d 6ffe bd3d 8418 b33d 2c95 8e3d
00000340: 4eab cc3d 5cc1 203e f2d1 683d ac4d d13d
00000350: 646f 143e a1d3 833d 0b5b b43d 93b1 c83d
00000360: e9a8 f03d 6ab5 a33d 1311 b43d c5ab 6a3d
00000370: d026 093e 850e f43d a11a be3d 226f 013e
00000380: baae a53d 089b 8d3d 9f14 eb3d 646e 003e
00000390: fd3f 153e 89ae e73d 3460 2d3e 5667 a03d
000003a0: 42ec b43d 1408 e83d 8903 c63d 03bf b53d
000003b0: 5303 053e a38f d83d c747 1d3e 7e00 003e
000003c0: 61e4 973d 9d26 e93d c373 c33d 82f9 ef3d
000003d0: de2f 383e 8a1b ec3d a0f6 b93d 07e7 f13d
000003e0: b644 1c3e 1a47 803d 3a60 f03d 16a7 e63d
000003f0: ab64 463e 1c10 cd3d ae2a 063e e5e6 933d
0.08287987 0.13433173 0.15273726 0.122419424 0.09460188 0.08464268 0.09251178 0.14148402
0.058046788 0.1329317 0.065417185 0.27689064 0.14116473 0.23260213 0.116162464 0.14398976
0.17445824 0.101376414 0.095827006 0.097707994 0.15682264 0.09607172 0.12148491 0.08773315
0.06719211 0.13216835 0.18381728 0.14101292 0.07996219 0.10891902 0.14023592 0.097467616
0.10362767 0.10491752 0.096144065 0.06491627 0.08573525 0.4194989 0.09755147 0.1329861
0.08464321 0.0817554 0.074680634 0.10291833 0.0794261 0.12940884 0.26631674 0.09265346
0.13994122 0.14515479 0.099318795 0.1180106 0.1031871 0.10281508 0.10195372 0.10975514
0.08861548 0.16973472 0.1111383 0.10278833 0.15431373 0.10830394 0.14288174 0.17148684
0.13908583 0.11721533 0.06863462 0.079708174 0.12804335 0.12844875 0.08035103 0.06591718
0.12025147 0.11507534 0.1173898 0.15328541 0.08643844 0.05729274 0.10656802 0.11844333
0.21180172 0.17669936 0.097704776 0.19770554 0.12967661 0.14850397 0.123937614 0.11608932
0.14125796 0.10342224 0.09582445 0.23759025 0.08619489 0.12145421 0.06841246 0.14146024
0.10915821 0.091159314 0.28926188 0.11220274 0.092653565 0.075440474 0.08125092 0.12415148
0.16425078 0.20802754 0.14198352 0.12095728 0.10113959 0.088867575 0.116883926 0.0839671
0.114354335 0.07020305 0.07764062 0.14372851 0.09193483 0.105012156 0.23070253 0.13555738
0.06641968 0.08051062 0.09296255 0.14639194 0.1347412 0.10823354 0.07169676 0.082384825
0.14993492 0.10197356 0.09283672 0.10893055 0.1313264 0.1199312 0.1715323 0.082392365
0.08138475 0.14175631 0.09927854 0.10558678 0.097107165 0.11632154 0.09569348 0.16497657
0.09765965 0.17676617 0.103027135 0.0975268 0.10372269 0.10130439 0.088836566 0.09659091
0.09692138 0.07523237 0.14807355 0.1062128 0.07415306 0.12681483 0.15393157 0.16054702
0.19319437 0.18936254 0.073278464 0.08788956 0.14660762 0.121772096 0.108415514 0.13151841
0.084332615 0.12060246 0.097522944 0.13657527 0.15360703 0.16377845 0.13129303 0.07700842
0.12255671 0.07573918 0.087371446 0.057206206 0.105149515 0.0840977 0.06547301 0.10196094
0.05607249 0.08195109 0.15130721 0.08631637 0.13106482 0.104030535 0.112435766 0.15597714
0.13443394 0.12179776 0.30524266 0.1576563 0.12662724 0.17375623 0.103070624 0.09195935
0.07061013 0.15755312 0.16873765 0.06780148 0.11922964 0.09277045 0.0874491 0.06962046
0.09993611 0.15698761 0.056840844 0.10219893 0.14495617 0.064368494 0.088064276 0.097994946
0.11750967 0.07993586 0.08792319 0.05729272 0.13393712 0.11916832 0.09282423 0.1264005
0.08089967 0.069143355 0.114785425 0.1254211 0.14575191 0.11312587 0.1693123 0.0783221
0.08834125 0.11329666 0.09668643 0.08874323 0.1298955 0.105742715 0.15359412 0.12500188
0.07416607 0.11384318 0.09543564 0.11717512 0.1798701 0.1152869 0.09080243 0.11811643
0.15260586 0.062635615 0.11737104 0.11262338 0.1937434 0.10012838 0.13102219 0.07221774

model.4.weight f4 [256, 512]
00000000: 1f7c 783d c0fb 2ebd 7260 8abc 5fb6 40bd
00000010: 4154 61bd 4fff 10bd 9993 28bc 377a 243d
00000020: 2b12 6dbb b559 453d 56c9 c9bc dcd5 73bd
00000030: 1219 de3c 52d9 6c3c e3c8 643c c2cb 31bd
00000040: e2b6 863c d511 c9bc 04d1 113d 9373 96bd
00000050: cfb2 223d 9700 58bc 148c 5abd 6409 3e3d
00000060: 99dd 923c 2467 9b3b e439 d7bc 5e4d c23b
00000070: e0e4 07bc c45a adbd 70c3 09bc 1883 1bbc
00000080: dd5c e0bc 483c d8bc b4e6 10bd 2c49 1fbd
00000090: aba6 3d3a 67f6 e83c 8258 8d3d 722f 3d3d
000000a0: 0a46 403c 3feb 0bbd b3dc 073d 251a 4c3d
000000b0: fd43 393d ba71 623d 0963 01bc 6842 963d
000000c0: 97e6 4fbd 71dc efbb 60ac d2bc d2cc 953c
000000d0: 1b07 f23c f848 c33c 44d2 6cbd bfd6 763c
000000e0: 5b27 1abc 2cf4 92bd ac2b 84bb a1d6 ed3b
000000f0: 313f c03b 9cbf 03bc dd7b 38bd 533e 20bb
00000100: bd82 f5bc 0de9 88bd 3639 c7bc 02d0 8fbc
00000110: cad3 bdbc b382 edbc d3f3 163d d92b 323c
00000120: eb64 313d 6916 17bd f6f4 103d b375 ec3c
00000130: b98f 8a3d 828d d33c eff5 0ebd 3007 503c
00000140: c4a1 043c 7b1e 33bc e933 033d 3e9e 84bd
00000150: 3693 9b3d 0807 04bd d98d 05bd f074 b83c
00000160: ac1b ba3c 483c 27bd 6dc5 223d 11c3 95bc
00000170: a579 043a 2456 66bd fb20 8b3c 314d 8ebd
00000180: f7ec c9bc aae5 6b3d 6c6a cdbc 4807 b23c
00000190: 5f38 603c 0f49 69bd bb4e 5ebb 2cea 7cbc
000001a0: d971 4dbd a73a 7abd fee9 d73b bfb1 833c
000001b0: 94b2 12bd 2950 893c b42d 75bd d80c f3bc
000001c0: b53e 29bc f6ce e03c 4d35 f4bc 4982 58bc
000001d0: 03c9 8bbd 6e91 68bd 2d5f 93bc 06fd 56bd
000001e0: 370a 073d 1894 67bd f3b7 213d ee3a 1bbd
000001f0: 7e23 96bc 1e30 9bba 0697 963c 9435 083d
00000200: ed42 25bd 47bf 01bd 0e40 973c 947f cd3c
00000210: 2846 03bd 06e3 8cbc 109a 91bc f0aa 5d3c
00000220: c555 ad3b 66e5 a3bd 82bd 643c 1e0f 0f3d
00000230: 01ab 003d d6a2 50bc dfaa 173d 30fb 64bd
00000240: 8b34 e0bc 91c4 01bd 318d 553d ecc2 7c3d
00000250: 0707 02bd d8bf b43a 6b7b 06bd 81a8 dfbc
00000260: 1de8 9a3a b508 d33c 45f7 e0bc ee54 babc
00000270: 9c02 b53c 68e4 413d b942 27bd 08d4 b0bd
00000280: 68e8 30bd 89e3 90bd 615a 223c fc19 42bc
00000290: 8ec2 df3b 82f6 9bbb ca95 783c 1ab5 bf3c
000002a0: b025 b2bc 0429 893c d940 70bd db81 16bc
000002b0: e48f 7cbc 9876 58bc 99a3 61bd ddea ae3b
000002c0: fc68 063d b8bc b63c c348 1a3d 8d47 bcbc
000002d0: 5751 8b3d 8ae5 233c 024b 6abd afe6 36bc
000002e0: 1fbc 183d 3156 ce3b 7f86 313c ffce 283d
000002f0: 8d26 4ebd a68b 92bb f2ab 863d 66fe 7cbd
00000300: c7d8 7dbd ccb9 313c d0c3 34bc fac6 673c
00000310: f80a 8cbd 972d c7bd 3513 003d c500 823c
00000320: 3be6 503c 5c63 5bbc a3ad 54bd 8142 24bd
00000330: 6bc4 253c 150b 31bd 808b 2eb6 5e59 503c
00000340: 4876 c23c 522f 3a3d e81e 85bd ed15 843d
00000350: 6a6d f0bb 0ac5 74bd a63d 853b 2776 edbc
00000360: ec0a 1f3d fe22 64bc ed85 31bd 16c8 fdbc
00000370: c500 7fbc b1a4 753c c9b9 13bc 383f 26bc
00000380: 202c 64bc 93ed 403d d138 41bd f22f 9a3c
00000390: c72b 9a3c 145e b9bb 3c82 a2bc 690d 8dbd
000003a0: 6d57 97bd 030b 403d a552 a03c 9efa 7d3c
000003b0: 167f 78bc a1e4 36bc 244b c6bc ce85 60bd
000003c0: a70b 093d 2333 ed3b 8f1b 3f39 0730 86bd
000003d0: db75 733c 3fe5 f7bd 9e80 b73c 33b5 adbc
000003e0: 2334 d3bb da47 83bc 154d d1bb 087d 013d
000003f0: c8f9 59bd 6221 e9bb 4663 b33c 455b 59bb
0.060665246 -0.042720556 -0.016891692 -0.047048923 -0.05501199 -0.03539973 -0.010289096 0.040155616
-0.003617416 0.048181254 -0.024632137 -0.059530124 0.027111564 0.01445611 0.013963911 -0.04340721
0.016444627 -0.024544636 0.035599723 -0.07346263 0.039721306 -0.013183734 -0.053356245 0.046395674
0.017927932 0.00474252 -0.026272722 0.005929633 -0.008294314 -0.08464578 -0.008408412 -0.009491704
-0.02738803 -0.026395932 -0.035376266 -0.03888814 0.00072346133 0.028437806 0.06901647 0.046187826
0.011735449 -0.034159895 0.03316946 0.04982962 0.045230854 0.05528424 -0.007897147 0.07336885
-0.050757017 -0.00731998 -0.02571696 0.018286142 0.029544404 0.023838505 -0.057817712 0.015065848
-0.009408797 -0.07175478 -0.0040335264 0.007258252 0.005866908 -0.008041289 -0.04504 -0.002445121
-0.029969567 -0.06685076 -0.024319272 -0.01755524 -0.023172278 -0.028992986 0.036853623 0.010874712
0.043309133 -0.036886606 0.035389863 0.028864717 0.06765694 0.025824312 -0.03490251 0.012697026
0.008095209 -0.01093256 0.032031927 -0.06475495 0.07596438 -0.032233268 -0.03260598 0.022516698
0.022718273 -0.040828973 0.03973906 -0.018281491 0.0005053527 -0.056234494 0.0169835 -0.06948317
-0.024649126 0.05759207 -0.02507516 0.021731988 0.013685315 -0.05695444 -0.0033921439 -0.01543669
-0.0501574 -0.06109109 0.0065891733 0.016075967 -0.035814837 0.016761856 -0.05985804 -0.02966921
-0.010329892 0.027442437 -0.029810572 -0.013214656 -0.06825449 -0.056779318 -0.01798972 -0.052487396
0.032968726 -0.056537718 0.03948207 -0.037897997 -0.01832747 -0.0011839902 0.01838256 0.03325422
-0.04034703 -0.031676557 0.01846316 0.025085248 -0.032049328 -0.017198097 -0.017773658 0.013529524
0.0052897655 -0.08002739 0.013961198 0.034926526 0.031413082 -0.012734136 0.03702819 -0.055903614
-0.027368804 -0.0316816 0.052136604 0.06170933 -0.031744983 0.0013790084 -0.032832544 -0.027302029
0.0011818443 0.025760988 -0.027461657 -0.022745576 0.02209597 0.047336966 -0.040835116 -0.08634192
-0.04319039 -0.07074649 0.009909243 -0.0118470155 0.0068286126 -0.0047596106 0.015172431 0.023401786
-0.021746486 0.01674319 -0.058655594 -0.009186233 -0.015415166 -0.013211869 -0.05508766 0.0053380565
0.032814965 0.022306785 0.037667047 -0.022983337 0.06802624 0.010003457 -0.05720044 -0.011163398
0.03728878 0.006296896 0.010835289 0.04121303 -0.050329734 -0.004472214 0.06575765 -0.06176605
-0.061974313 0.01084752 -0.011033013 0.014146561 -0.068380296 -0.097254924 0.031268317 0.015869508
0.012750204 -0.013390388 -0.051923405 -0.040102486 0.0101176305 -0.04322346 -2.600922e-06 0.012716619
0.023738042 0.045455284 -0.065000355 0.064494945 -0.007337262 -0.059758224 0.004066187 -0.028987003
0.038828775 -0.013924358 -0.043340612 -0.030979197 -0.015564148 0.014992879 -0.009016463 -0.010146908
-0.013926536 0.04710157 -0.047173325 0.01882169 0.018819703 -0.005656967 -0.019837491 -0.068873234
-0.07389722 0.0468855 0.019570658 0.015501646 -0.015167018 -0.011162908 -0.024205752 -0.054815106
0.03345838 0.007238762 0.00018225446 -0.06552129 0.014859642 -0.12104272 0.022400197 -0.021204567
-0.006445424 -0.016025472 -0.0063873627 0.03161338 -0.053216726 -0.0071145752 0.021897923 -0.0033165973

model.4.bias f4 [256]
00000000: 966c 75bb c434 1f3d fcfa 83bc 9052 f23b
00000010: 0beb f0bb 8b50 183d b3bb a73c 7b1d b5bc
00000020: 9d02 313d eb82 a03b 0605 bd3b 8cef 89bc
00000030: 82dc 073c 2b18 07bd 9455 213c 02f8 253d
00000040: c01b 0b3d 5d07 813c 4294 85bc 13c3 0dbd
00000050: ec4c a03a 3af7 c63c d5d2 08bc 1500 17bb
00000060: ff9d e73c c4ec c33c 875d 0d3d f56c 8bbb
00000070: 1938 d63c ea9a e7bc af29 cebc e45e b1bc
00000080: d086 883c 4980 b2ba 55b1 f0bb 0c14 263d
00000090: fac3 a23c c144 54bb da19 893c c611 e1bc
000000a0: f380 a63c 2139 883c b446 04bd 6999 a5bc
000000b0: 4a5d 273d 212b 303d 34ad 173d d60e 253d
000000c0: bb54 1dbd 42f0 e63c 9f3a c53c 8921 5ebb
000000d0: de9f 6cbb a6b2 a1bc ab01 feba 4368 133d
000000e0: f97c aebc 4813 92bc 9972 033d 67f3 b6bc
000000f0: f47c 663a 410b c2bc 02f0 583c 3075 2a3d
00000100: 73e5 943c cbc5 753a 153d 133d 5326 633c
00000110: 2e7f 1c3d d976 0cbd efe1 123d 8c1c 03bc
00000120: 7627 adbc 606a e4bc 57d2 65bc bb69 8a3c
00000130: 0d80 f1bb 4ba6 2dbd b044 27bd 610b 16bc
00000140: ca3c 20bd 6318 8a3c 1a62 6cbc 377e 863c
00000150: 08c1 e0bb 152a 32bd 8334 c0bc 5acd 643c
00000160: 60e7 afbc 1069 c63c 877d 02ba a494 10bc
00000170: 9599 1f3d 4d74 253d e27e 52bc 08b6 bdbb
00000180: 7029 17bc a59e 193b 984f 0b3d 62a6 1e3d
00000190: 62de a83a 738a 2cbd 0342 b43c 2a1f c83c
000001a0: d0a9 7bbc 073c e53c 35ed 013c 7e11 dabc
000001b0: 25a9 7d3c 4c55 e3bc 7418 643c e998 a73b
000001c0: 879e 4abc c375 5b3c 8fbf a2bc 0ab9 aa3c
000001d0: c68c 2abd 3bba d1bc 9670 95bc a017 c3bc
000001e0: 2bf7 8ebc 02bd 013d 3ef8 1bbd e7f5 5cbc
000001f0: b625 dabc d85c 28bd 8a55 62bc d01f b93c
00000200: 4c9e 7dbc 9455 6fbb 4845 65bc c0cb 59bc
00000210: c8c9 853c 37ea 11bd 7ae6 a43c 2d3b f9bc
00000220: 6279 f03b 1ac4 f7bc d932 a639 b300 1a3d
00000230: 710f 323d d9e8 9cbc 6278 b2bb cde8 2f3d
00000240: 8f8f aeba 75ad 873c 6015 26bd df20 153c
00000250: 846d 1fbd 4afa 01bd 9417 f73c 228f 0abd
00000260: 1b62 f7bc a8e4 c83c 12aa 6c3c ec03 0c3d
00000270: 4e83 23bd 7f82 093d 1fcb 323c 2abe ba3b
00000280: 0c41 a03c f1f8 313d 81c9 debb 5a60 853c
00000290: 9dc0 9abc 701b 8d3c ff5d dd3c 323b 0b3d
000002a0: 0805 763c f4e5 ec3c 32fb 26bd 35ce e7bc
000002b0: 2ad5 113d 89a2 533c f88f 97bc 88d6 2d3c
000002c0: f75e ccbc 0a42 323d 51d8 18bc bc61 31bd
000002d0: 5233 033d 7a52 90bc a38f c93c b2e3 0c3d
000002e0: b4d2 803a 5270 2e3c 2f55 133c 9b7b 613c
000002f0: c172 20bd 5c9f 47bb 082d aabc d12f ea3c
00000300: ab46 26bd a44f 24bd 3cae 993c b92e df3c
00000310: 5aca ecbc 4042 fd3c 43e4 433c ffde 24bd
00000320: ccd6 303d bca9 92bc 20f3 2abd 69b6 ae3c
00000330: 251d d3bc f6d8 b03c c7ff 94bc 6ced 17bd
00000340: cfc6 983c a1df 9e3c 331f f3ba 0b7e fe3c
00000350: 77e0 01bd b34b 0fbd 787a 61bc 95c6 ed3c
00000360: 6476 413b 1a53 f5bc 852e f53c 89cf 303b
00000370: c436 1f3c 5101 abbb 0fee abbc d7dd 25bc
00000380: 072e a3bb fef1 3a3c 57b8 113d 7551 e33c
00000390: f1a5 883c 4223 b0bc b827 ebbc 8624 cebc
000003a0: d112 2b3d ce1e 2ebd 053c 183d 1f8a ecbc
000003b0: 2307 393c 61d6 a4ba 9a5c f03c b9c2 22bc
000003c0: 7cb8 28bd a28e 8fbc 15be 123d 3057 01bd
000003d0: a34e ccbc 9469 353d 8503 0b3d a4a3 f93c
000003e0: 78f6 533b 5fc1 12bd 153e b83c 967c 31bd
000003f0: 109c 0dbc 11d7 b53c ca86 8dbc feb6 203d
-0.0037448755 0.03886868 -0.01611089 0.007395096 -0.007352238 0.037186187 0.020475244 -0.022108784
0.043215383 0.004898419 0.005768421 -0.016837858 0.008292319 -0.032982033 0.009847064 0.04051972
0.03396201 0.015750581 -0.016306046 -0.034609865 0.0012229956 0.024287809 -0.0083510475 -0.002304082
0.02827358 0.02391661 0.034513023 -0.004254932 0.026149796 -0.028272111 -0.02516636 -0.021651693
0.016665846 -0.0013618554 -0.0073453584 0.040546462 0.01986884 -0.0032389613 0.01673596 -0.027474295
0.02032516 0.016628804 -0.03229399 -0.020214753 0.04086045 0.04300988 0.037030414 0.04029735
-0.038410883 0.028190736 0.024075804 -0.00338945 -0.003610603 -0.019738507 -0.0019379159 0.035988104
-0.021299826 -0.01783146 0.03209171 -0.02233286 0.0008792423 -0.023687007 0.013240816 0.041615665
0.018175816 0.0009375482 0.035946924 0.013864118 0.038207226 -0.03429303 0.03586 -0.008002412
-0.02113698 -0.027882755 -0.0140272 0.01689612 -0.007370001 -0.042394917 -0.04083699 -0.009157986
-0.039120473 0.016857332 -0.014427686 0.016417606 -0.0068589486 -0.043497164 -0.02346254 0.013964975
-0.021472633 0.02422002 -0.00049778115 -0.008824501 0.038964827 0.040394116 -0.012847634 -0.005789522
-0.009226188 0.0023440507 0.034011453 0.038732894 0.0012883658 -0.042124223 0.022004133 0.024428923
-0.015360311 0.027982725 0.00793009 -0.026619669 0.015482222 -0.027750634 0.013921846 0.005114664
-0.012366897 0.013394776 -0.019866733 0.020840187 -0.04163816 -0.025601497 -0.018242162 -0.023814976
-0.017451843 0.031674393 -0.03807854 -0.013486362 -0.02662931 -0.041104168 -0.013814339 0.022598177
-0.015479635 -0.0036519514 -0.013993569 -0.013293207 0.016331568 -0.035623755 0.020129431 -0.030423725
0.0073386887 -0.030244876 0.00031699872 0.037598323 0.043471757 -0.019154 -0.0054464797 0.042946626
-0.001331793 0.016562203 -0.04054773 0.009102075 -0.0389228 -0.031732835 0.03016261 -0.03382791
-0.030198148 0.024523094 0.014444845 0.034183428 -0.039920144 0.033571716 0.010912686 0.005698939
0.019562267 0.0434503 -0.0067989235 0.016281296 -0.018890673 0.017224997 0.02702236 0.033992
0.015015848 0.028918244 -0.040766902 -0.02829657 0.03560368 0.012917169 -0.018501267 0.01061023
-0.024947627 0.04352001 -0.009328918 -0.043306097 0.032031365 -0.017617453 0.024604624 0.034396835
0.000982842 0.010646896 0.008992477 0.01376238 -0.039171938 -0.0030459976 -0.020773426 0.028587254
-0.040594738 -0.040115014 0.01875984 0.027243959 -0.028905082 0.03091538 0.011956277 -0.04025173
0.043173596 -0.017903201 -0.04173577 0.021327214 -0.025770733 0.02158783 -0.01818837 -0.037091658
0.018649487 0.019393744 -0.0018548727 0.031065961 -0.031708207 -0.0349843 -0.013762109 0.029025355
0.002952003 -0.029946852 0.029929409 0.002697917 0.009717647 -0.005218663 -0.020987539 -0.0101236915
-0.004979852 0.0114102345 0.03557619 0.027748803 0.01668069 -0.021501187 -0.028705463 -0.0251639
0.04176599 -0.042509846 0.037166614 -0.028874455 0.011293205 -0.0012576097 0.02934103 -0.009934121
-0.041191563 -0.017524067 0.035825808 -0.03157729 -0.02493984 0.04429014 0.033938903 0.030473538
0.0032342952 -0.035828944 0.02249054 -0.043331705 -0.008643165 0.022197278 -0.017276186 0.039237015
